…
 flag, not via TF_XLA_FLAGS) or set the envvar XLA_FLAGS=--xla_hlo_profile.
W1219 08:02:18.787666 140026007090944 deprecation_wrapper.py:119] From /home/2014313303/.local/lib/python3.5/site-packages/keras/backend/tensorflow_backend.py:422: The name tf.global_variables is deprecated. Please use tf.compat.v1.global_variables instead.

1th cross validation
Model: "model_1"
_________________________________________________________________
Layer (type)                 Output Shape              Param #   
=================================================================
input_1 (InputLayer)         (None, 15, 1)             0         
_________________________________________________________________
conv1d_1 (Conv1D)            (None, 13, 128)           512       
_________________________________________________________________
max_pooling1d_1 (MaxPooling1 (None, 6, 128)            0         
_________________________________________________________________
batch_normalization_1 (Batch (None, 6, 128)            512       
_________________________________________________________________
conv1d_2 (Conv1D)            (None, 4, 128)            49280     
_________________________________________________________________
max_pooling1d_2 (MaxPooling1 (None, 1, 128)            0         
_________________________________________________________________
batch_normalization_2 (Batch (None, 1, 128)            512       
_________________________________________________________________
dense_1 (Dense)              (None, 1, 64)             8256      
_________________________________________________________________
batch_normalization_3 (Batch (None, 1, 64)             256       
_________________________________________________________________
dense_2 (Dense)              (None, 1, 32)             2080      
_________________________________________________________________
batch_normalization_4 (Batch (None, 1, 32)             128       
_________________________________________________________________
dense_3 (Dense)              (None, 1, 1)              33        
=================================================================
Total params: 61,569
Trainable params: 60,865
Non-trainable params: 704
_________________________________________________________________
Epoch 1/30

 32/587 [>.............................] - ETA: 15s - loss: 0.6370 - accuracy: 0.6562
352/587 [================>.............] - ETA: 0s - loss: 0.5449 - accuracy: 0.7045 
587/587 [==============================] - 1s 2ms/step - loss: 0.5296 - accuracy: 0.7189
…
