…
 flag, not via TF_XLA_FLAGS) or set the envvar XLA_FLAGS=--xla_hlo_profile.
W1219 01:29:55.600779 140511458174720 deprecation_wrapper.py:119] From /home/2014313303/.local/lib/python3.5/site-packages/keras/backend/tensorflow_backend.py:422: The name tf.global_variables is deprecated. Please use tf.compat.v1.global_variables instead.

1th cross validation
Model: "model_1"
_________________________________________________________________
Layer (type)                 Output Shape              Param #   
=================================================================
input_1 (InputLayer)         (None, 15)                0         
_________________________________________________________________
dense_1 (Dense)              (None, 10)                160       
_________________________________________________________________
batch_normalization_1 (Batch (None, 10)                40        
_________________________________________________________________
dense_2 (Dense)              (None, 20)                220       
_________________________________________________________________
batch_normalization_2 (Batch (None, 20)                80        
_________________________________________________________________
dense_3 (Dense)              (None, 10)                210       
_________________________________________________________________
batch_normalization_3 (Batch (None, 10)                40        
_________________________________________________________________
dense_4 (Dense)              (None, 1)                 11        
=================================================================
Total params: 761
Trainable params: 681
Non-trainable params: 80
_________________________________________________________________
Epoch 1/30

 32/587 [>.............................] - ETA: 10s - loss: 0.7496 - accuracy: 0.5000
480/587 [=======================>......] - ETA: 0s - loss: 0.6948 - accuracy: 0.6167 
587/587 [==============================] - 1s 1ms/step - loss: 0.6838 - accuracy: 0.6269
…
