…
W1219 08:01:40.128697 139787151165184 deprecation_wrapper.py:119] From /home/2014313303/.local/lib/python3.5/site-packages/keras/backend/tensorflow_backend.py:422: The name tf.global_variables is deprecated. Please use tf.compat.v1.global_variables instead.

1th cross validation
Model: "model_1"
__________________________________________________________________________________________________
Layer (type)                    Output Shape         Param #     Connected to                     
==================================================================================================
input_1 (InputLayer)            (None, 15, 1)        0                                            
__________________________________________________________________________________________________
lstm_1 (LSTM)                   (None, 128)          66560       input_1[0][0]                    
__________________________________________________________________________________________________
lstm_2 (LSTM)                   (None, 128)          66560       input_1[0][0]                    
__________________________________________________________________________________________________
batch_normalization_1 (BatchNor (None, 128)          512         lstm_1[0][0]                     
__________________________________________________________________________________________________
batch_normalization_2 (BatchNor (None, 128)          512         lstm_2[0][0]                     
__________________________________________________________________________________________________
concatenate_1 (Concatenate)     (None, 256)          0           batch_normalization_1[0][0]      
                                                                 batch_normalization_2[0][0]      
__________________________________________________________________________________________________
batch_normalization_3 (BatchNor (None, 256)          1024        concatenate_1[0][0]              
__________________________________________________________________________________________________
dense_1 (Dense)                 (None, 64)           16448       batch_normalization_3[0][0]      
__________________________________________________________________________________________________
batch_normalization_4 (BatchNor (None, 64)           256         dense_1[0][0]                    
__________________________________________________________________________________________________
dense_2 (Dense)                 (None, 32)           2080        batch_normalization_4[0][0]      
__________________________________________________________________________________________________
batch_normalization_5 (BatchNor (None, 32)           128         dense_2[0][0]                    
__________________________________________________________________________________________________
dense_3 (Dense)                 (None, 1)            33          batch_normalization_5[0][0]      
==================================================================================================
Total params: 154,113
Trainable params: 152,897
Non-trainable params: 1,216
__________________________________________________________________________________________________
Epoch 1/50

 32/587 [>.............................] - ETA: 20s - loss: 0.9708 - accuracy: 0.4062
…
